Sine_Wave_Explorer/sinewave_model.pt (torch, 25085 bytes, 11 tensors)

hidden1_reg.weight f4 [32, 1]
000000 27 b9 0c 3e 71 85 a3 be 99 5b 26 bf 40 fe b8 bc
       0.13742505 -0.31937745 -0.64983517 -0.022582173
000010 c9 93 6b 3f 69 87 72 3e f0 61 85 3e 60 6b 7e 3d
       0.9202238 0.23684467 0.26051283 0.06211412
000020 38 b5 3b bf bb 78 0c 3f 60 8d 50 3f ca 1c cb 3e
       -0.7332339 0.5487172 0.8146572 0.39670402
000030 60 19 52 bd cc 95 67 bf a7 48 0f 3f 8b 4c 6c 3f
       -0.05129373 -0.90462947 0.55970234 0.92304295
000040 1c f8 f4 3e 26 3b 68 bf 0d 7e 7e 3f 00 fb 90 3d
       0.47845542 -0.90715253 0.9941109 0.070791245
000050 8d b1 ad 3e 4b a4 c0 3e 4f 86 81 3e a0 07 b8 3e
       0.33924523 0.37625346 0.25297782 0.35943317
000060 20 7d 4f 3d 4f 47 9d be 5b 17 f3 be 40 c9 f0 bc
       0.050656438 -0.30718467 -0.47478756 -0.029392838
000070 76 9e c1 3e 68 ab 9e 3e af db 63 bf 62 07 12 3f
       0.3781621 0.30990148 -0.89007086 0.57042515

hidden1_reg.bias f4 [32]
000000 af d6 0d be 4d 4d 2d 3f 40 b3 5e 3f 40 e4 80 be
       -0.13851427 0.67696077 0.86992264 -0.2517414
000010 b0 b3 75 3f b6 7c 3e 3f ee 87 51 3f 94 fd ae be
       0.95977306 0.74409044 0.8184804 -0.3417784
000020 78 22 4e bf bf 09 33 bf 09 60 2a 3f ff e2 33 bf
       -0.80521345 -0.69936746 0.6655279 -0.70268244
000030 8c 13 3b bf 0d 59 98 3d 44 6e 76 3e 7f 8d d7 bd
       -0.730767 0.0743886 0.240655 -0.10525035
000040 d3 22 da be c5 d7 de 3e 55 81 81 bd f2 53 2f bf
       -0.42604694 0.43523994 -0.06323496 -0.68487465
000050 33 17 0c bf cf 76 11 bf c3 66 4b 3f 1e 8a 90 3f
       -0.547229 -0.5682191 0.79453677 1.129215
000060 54 6b c3 be 99 40 59 3d ce bd 73 3f b0 4b b8 be
       -0.38167822 0.05304012 0.95211494 -0.35995245
000070 be c0 ae be 4d b1 7b be 0e ac 0e 3f 27 e9 71 3f
       -0.34131426 -0.24579354 0.55731285 0.9449639

hidden1_class.weight f4 [32, 20]
000000 d9 51 4b bc 3b 0a 03 3e 13 e1 53 be 65 4d e5 3d
       -0.012409651 0.12796871 -0.20691328 0.111964025
000010 41 e2 40 3e b0 65 af 3d 37 85 f5 3c 75 7d 79 3d
       0.18836309 0.08564317 0.029970748 0.06091066
000020 b4 ae 57 3e d1 a0 56 be be 77 b6 3d 18 cd 3c be
       0.21062738 -0.20959784 0.08909558 -0.18437612
000030 8f 3e ff 3d 36 d6 db bd 68 f0 d0 3d 5d d5 42 3e
       0.12463104 -0.10734217 0.10202104 0.19026704
000040 ce 38 53 3e 5f 39 45 3e 02 86 25 be df 0a 3b be
       0.20627138 0.19260167 -0.16164401 -0.18265866
000050 93 ac ef bd 77 95 8d 3e 79 a7 a3 bd 9d f5 23 bd
       -0.11702838 0.27653095 -0.07990927 -0.040029157
000060 48 6d 1e be 06 55 2d be 02 e9 d6 bd 82 90 92 3e
       -0.15471375 -0.16926965 -0.104936615 0.28625876
000070 ef d4 0a 3e 52 9c 10 3e ad 93 6b be 7b 74 3d be
       0.1355779 0.14122131 -0.23005553 -0.18501465
000080 63 3a 95 3b 21 46 38 3e f0 6f 86 3e ce 65 21 3e
       0.0045540794 0.17995502 0.26257277 0.15761492
000090 ef fd 0f be af 25 9e be c8 24 c5 3d 14 e0 0e 3e
       -0.14061712 -0.30888125 0.09626156 0.13952667
0000a0 d2 c2 35 3e ee ef b0 bc e7 d5 5f bc 98 69 d9 3c
       0.177501 -0.021598782 -0.013661838 0.026539609
0000b0 b5 39 86 be bd 75 5e bd 08 6f 16 3e 51 35 2e be
       -0.26215902 -0.054311503 0.14690793 -0.17012526
0000c0 98 25 89 3c cd 28 41 3e 54 c6 52 be 29 bd f1 bd
       0.016741559 0.1886322 -0.20583469 -0.118036576
0000d0 49 b5 05 3e 86 88 2e be 37 f2 bb bd bf 3c 2b 3e
       0.13057436 -0.17044267 -0.09177058 0.16722392
0000e0 49 a4 b6 bd 0f f5 67 bd 4e 95 0e be b1 a6 70 3d
       -0.08918054 -0.05663019 -0.13924143 0.05875272
0000f0 cc 6b 54 3e 77 7c e5 3d 60 77 49 be 68 6d a4 bd
       0.20744246 0.112053804 -0.19674444 -0.0802868
000100 6e 6a a5 3b 7f 78 e6 bc 84 fd 48 3d 91 39 e6 3d
       0.005048088 -0.028133629 0.049069896 0.11241449
000110 79 ee a5 3d d8 f3 0e 3e 81 87 46 3e 46 d6 de 3d
       0.08102126 0.13960207 0.19387628 0.10880713
000120 f7 1d 48 bd da cf ac bd 92 0d f4 bd 5d d6 37 3e
       -0.0488567 -0.08438082 -0.11916651 0.17952867
000130 8c 72 f7 3d 18 1b 0e bd cd 5b 4d 3d 11 b0 26 3e
       0.12082395 -0.034693807 0.050136376 0.16278102
000140 bc de 35 3d 5c c8 91 3d 40 98 8d 3e 31 57 68 bd
       0.04440187 0.07118294 0.2765522 -0.056723777
000150 1f 3f ce 3c 94 c1 92 3d 63 95 bc bc d6 60 83 be
       0.025176583 0.07165828 -0.023020452 -0.25659817
000160 a6 25 4f be 92 5f 3e be b1 2c f2 3d 5c 21 78 3e
       -0.20229205 -0.18591145 0.118249305 0.24231476
000170 fd 21 c5 bd 16 c7 85 3e bf 9f 99 3e ea 1d 64 be
       -0.096256234 0.26128453 0.3000469 -0.22277036
000180 00 fa c4 3d 3f 93 f5 bb e6 83 49 be 40 32 57 3e
       0.09617996 -0.0074943597 -0.19679222 0.21015263
000190 9d 96 fc ba 79 f3 98 bd a8 3c 16 3d 31 79 51 3d
       -0.001927096 -0.07468314 0.03667894 0.051140968
0001a0 93 d6 14 bd 0f 4d 93 3d 29 c5 a7 3d c0 d4 1f be
       -0.036337446 0.07192432 0.08191902 -0.15608501
0001b0 64 e2 00 bc e2 28 3c 3e ee eb 70 be 8a 60 22 3e
       -0.007866476 0.1837497 -0.235275 0.15857139
0001c0 56 d3 bf bd 4f 8d 23 3e 78 09 20 3e 98 4b 0e be
       -0.09366481 0.15971874 0.15628612 -0.13896024
0001d0 80 c5 cc 3d 27 3e 0c 3e a7 8f 78 bd 9b c5 d3 3d
       0.09998608 0.13695584 -0.060683873 0.103404246
0001e0 8f dc 32 3e 4e 25 55 3d 93 df 2f 3e 99 f8 62 3e
       0.17466949 0.05203753 0.1717513 0.22165145
0001f0 7e a6 9c 3e a1 7a c7 3d 21 46 83 3e 19 48 75 bc
       0.30595773 0.097401865 0.25639442 -0.014970803
000200 0a 62 f6 bc 1b ff 6d 3c fa b1 05 be 57 bf b7 bc
       -0.030076046 0.014526154 -0.13056174 -0.022430105
000210 32 fe 21 be 1f f6 8e be 05 ac 9f be b1 17 f4 bd
       -0.15819624 -0.2792215 -0.31185928 -0.11918581
000220 9c 96 3c be aa 9f 13 be a8 fb 28 bd 42 7b c4 3d
       -0.18416828 -0.14416376 -0.041255623 0.09593822
000230 3f 2a 14 be c9 35 b7 bd 08 20 3a 3e d6 de a9 3e
       -0.1446924 -0.089458056 0.18176281 0.33177823
000240 66 55 78 be 2b df 85 be 8f 4b 92 be 0c 62 51 3e
       -0.24251327 -0.26146826 -0.28573272 0.20447558
000250 08 de b9 3d f1 d7 98 3e e1 b2 f1 bd 52 66 25 be
       0.09075552 0.2985225 -0.118016966 -0.16152313
000260 53 64 3f be 3f 2f 43 3d 87 70 9d 3e 48 53 02 3d
       -0.18690614 0.04765248 0.30749914 0.031817704
000270 74 6f 54 bd ae c8 a3 3d b4 6b 15 be c0 9d 08 3e
       -0.051864102 0.07997261 -0.14591867 0.13341427
000280 a5 98 10 3e b7 7f 41 3d 1f d7 8f bd a0 e7 24 3e
       0.1412073 0.04724094 -0.07023453 0.16103983
000290 86 d6 37 bd 39 b4 a0 3d e5 09 7a be b7 e3 69 be
       -0.04488232 0.07846875 -0.24417837 -0.22840773
0002a0 fc e0 81 be 13 63 a2 be d1 00 cf bd 06 6c 3e 3e
       -0.25366962 -0.31716213 -0.101075776 0.18595895
0002b0 f3 6c 7e 3e 75 72 55 3e 79 68 fa bc 00 88 fe 3d
       0.24846248 0.20844443 -0.030567395 0.12428284
0002c0 3a 72 01 be 70 9e 10 be f1 33 bf 3d e3 bd 17 3e
       -0.1264123 -0.14122939 0.09336079 0.1481853
0002d0 eb a1 30 3e bb eb cd 3d f5 3c 96 3d b4 74 67 3e
       0.17249267 0.10054728 0.073358454 0.22603112
0002e0 ef 89 ea bc 7c c0 2d be 75 7b b2 3d ad 05 30 be
       -0.028630225 -0.16967958 0.08714954 -0.17189665
0002f0 e0 3c 69 be db 5a 5a be 35 a1 45 3e 5a 66 58 3e
       -0.22777128 -0.21323721 0.19299777 0.21132794
000300 f0 cd 49 3e 76 79 c9 3a 0c 41 36 3e 2c 3c 13 3c
       0.19707465 0.0015371281 0.17798251 0.008986514
000310 fe 5d 86 be f2 39 d8 bb 9a b9 78 bc 13 29 fd bb
       -0.26243585 -0.0065987045 -0.01518097 -0.0077258437
000320 7b 7f 97 bd 45 92 68 3e 04 6d 1d be 37 96 93 3e
       -0.07397362 0.22712047 -0.15373617 0.28825542
000330 c0 1a 4d 3e 86 61 69 3e 3d f6 92 3e f5 06 12 3e
       0.20029736 0.22791108 0.2870349 0.14260466
000340 18 3e 21 3e a4 e3 2c 3e 66 7e 58 be ba 45 3b 3b
       0.15746343 0.16883713 -0.21141967 0.0028575496
000350 5b 63 e0 bd d0 88 c6 bd 84 9c 21 be 7e 86 36 be
       -0.109564506 -0.09694064 -0.15782362 -0.17824742
000360 b3 00 77 be 5a df b9 bd b2 d4 e1 3b 06 57 ed bd
       -0.2412136 -0.09075804 0.0068918103 -0.11588864
000370 3b cc 30 3e 0c 33 0f 3d f8 35 d7 3c 5c 54 96 3e
       0.17265408 0.03496079 0.026270851 0.29361236
000380 1c 17 f3 bd c5 18 56 be 1d 5d ca 3d a3 44 2e be
       -0.11869642 -0.20907886 0.09881041 -0.1701837
000390 33 eb ba 3d cd 84 ee 3d 30 92 46 bd 22 8c 4b 3d
       0.09126892 0.116464235 -0.04847926 0.049694188
0003a0 da 00 de bd cd b8 f0 bd 97 42 2b 3d 29 e4 3e be
       -0.10840006 -0.11753998 0.041811552 -0.18641724
0003b0 39 cf 8d be 22 c8 67 be 5e 04 25 be e9 82 57 3e
       -0.2769716 -0.22634938 -0.16114947 0.21046032
0003c0 5d 75 0b 3e 9b e9 cb bd e6 a3 0e be 2d 36 68 bd
       0.1361899 -0.09956666 -0.1392971 -0.05669229
0003d0 10 f6 32 3e 3a 1b 8b 3d 68 1b 4f bd 2b 79 25 3e
       0.17476678 0.067923024 -0.050563246 0.16159503
0003e0 82 c2 74 bd 00 1f 25 3e 52 35 60 bd e2 ac ab 3d
       -0.05975581 0.16125107 -0.05473835 0.08382584
0003f0 4a 38 26 3e 0d 28 35 3c 85 81 26 be 19 c0 3f 3e
       0.1623241 0.011056912 -0.16260345 0.18725623

hidden1_class.bias f4 [32]
000000 36 39 df bd 67 1e 97 bd 1f e8 b9 3d a4 f8 59 be
       -0.10899584 -0.07378846 0.09077477 -0.21286255
000010 d0 94 2f bd 8d c0 02 be 53 5d 40 3e f3 d7 40 3e
       -0.042866528 -0.12768765 0.187856 0.18832378
000020 b1 2b fd 3d 0e 53 8a 3e 32 25 96 3d 1d 7a 98 3e
       0.12361849 0.2701649 0.07331313 0.29780665
000030 4f f0 b1 bd cc 49 5f bd 86 6e 8c 3e 9d bc 9f 3d
       -0.08688413 -0.054513738 0.27428073 0.07799647
000040 e0 89 ee bd f6 10 f3 3d f1 39 9c 3e 54 f0 9d bd
       -0.11647391 0.118684694 0.30512956 -0.077118546
000050 7e 7f 82 3e 51 41 87 3d 53 04 8e 3d 80 a8 85 3e
       0.25487894 0.06604255 0.069344185 0.26105118
000060 72 08 18 3e 98 55 8e 3e 41 43 e0 3d 29 f5 55 3e
       0.14846972 0.27799678 0.10950328 0.20894302
000070 22 47 8f 3e c5 2e 5f 3e 08 7d 9f 3d 4d 5d 57 be
       0.27983958 0.21795185 0.0778752 -0.21031685

hidden2.weight f4 [64, 32]
000000 c7 11 3b be fc 8d 59 3e 24 24 ec bd ac f6 e3 bd
       -0.182685 0.21245569 -0.11530331 -0.11131033
000010 9d 4f 5a be f4 6d ab bd 72 14 21 bd 2b 97 82 3e
       -0.21319433 -0.08370581 -0.03932614 0.25505957
000020 4f 83 dd 3d 41 34 d4 3b 59 73 85 3d 23 69 2d 3e
       0.10816061 0.0064759557 0.065161414 0.16934638
000030 78 0f fa bd a7 8f 84 bd a5 44 33 be be f9 77 3e
       -0.12209982 -0.06472712 -0.17506655 0.24216363
000040 ea 3d 07 3e 6a 07 20 3e 0d dc 71 3d 21 76 db bd
       0.13207212 0.15627828 0.059047747 -0.10715891
000050 51 2b 63 3e 60 8b 86 bc 5b 41 6f be 8d 39 c0 bd
       0.22184493 -0.016423881 -0.23364775 -0.09385977
000060 f5 b3 2a 3d 7b 86 4c 3e 64 d4 53 be a0 89 d9 bd
       0.041675527 0.19973175 -0.2068649 -0.10621953
000070 51 ed 66 3e ab 4b 29 bc da fb 0f 3d 8a 16 3d 3c
       0.22551467 -0.010332982 0.035152294 0.011541018
000080 1a a3 ff 3d e5 16 fc bc 3c 99 e3 3c b9 eb 91 3d
       0.12482281 -0.030772636 0.027783029 0.07125039
000090 88 79 03 3d af c7 53 be 95 81 11 be 21 aa a3 be
       0.032098323 -0.20681642 -0.14209588 -0.31965736
0000a0 3c f8 81 3c 92 87 25 3e 5c f9 c8 3d d3 a0 ba 3d
       0.015865438 0.16164997 0.098131865 0.09112706
0000b0 fd f4 c6 bc 92 26 28 3e 7b 00 84 3c 0d 10 e1 3d
       -0.024286741 0.16420963 0.01611351 0.109893896
0000c0 6d 52 d3 3c fe 41 02 3e 3e 0c 0b 3e bc 34 f8 bd
       0.02579614 0.12720487 0.13578889 -0.12119433
0000d0 61 d6 d9 bd 2b 0f 2c be 85 32 0f bd 36 73 a6 bd
       -0.10636593 -0.16802661 -0.03496029 -0.081274435
0000e0 9c bb df bd cd 0d 16 3b 00 da 2e 3e f4 80 85 bd
       -0.109244555 0.002289641 0.17075348 -0.065187365
0000f0 6d dc 26 3c 12 73 46 be 5a 5c ca 3c 4a 7a 2c 3d
       0.01018439 -0.19379833 0.02470224 0.04210881
000100 07 12 89 bd f9 ab cb 3d 44 c7 fc 3c 3d ac d6 bd
       -0.066928916 0.099449106 0.030856736 -0.104820706
000110 b5 1e be 3d 0b ec 81 bd 07 9d 40 bd c5 3e 26 be
       0.09283201 -0.0634385 -0.047024753 -0.16234882
000120 10 8e 16 3e 9b fd cf 3d 5b 68 bc bb 9e 76 26 3e
       0.1470263 0.10155793 -0.005749745 0.16256186
000130 3e 96 33 3e 55 d9 26 3e ef ba 97 3e 0f d4 44 be
       0.17537782 0.16293843 0.29634807 -0.19221519
000140 b3 0f 21 3e b8 b9 d1 3d 7c f4 09 3e 39 84 71 3d
       0.15728645 0.10240501 0.1347217 0.058963988
000150 69 fb d3 bd 2d 29 d0 3c f8 4e 43 3e 7b 0b 06 be
       -0.10350687 0.02541026 0.19073093 -0.13090317
000160 c9 2a b1 3c 0a 4b f5 bd e3 99 af 3d b7 79 3a be
       0.021626847 -0.11977203 0.085742734 -0.18210493
000170 59 73 68 3e 31 1c 26 3e e9 60 6a 3d e3 23 67 bd
       0.22700252 0.16221692 0.057221327 -0.05643071
000180 d4 df 8e 3d 05 bb 4b 3e 4e 86 02 3d 72 ee 14 3d
       0.069762856 0.19895561 0.031866364 0.03636021
000190 91 e3 b9 bd bd 69 bd 3d c5 4a 1f 3e 8a 87 7d 3e
       -0.09076608 0.092486836 0.15555866 0.24758735
0001a0 81 23 6a be 0b bf d9 3d 2f 7c 6d be 2e ba c4 3c
       -0.22865106 0.10632142 -0.23191904 0.024014559
0001b0 bf 1c 94 bc a0 22 20 bd c1 cd ae 3d bf 7c 2d be
       -0.018080113 -0.03909552 0.08535338 -0.16942118
0001c0 76 2f 35 be 59 dc bb 3d 8e 3d 52 bc c3 45 0c be
       -0.17693886 0.09172887 -0.012832059 -0.13698487
0001d0 ec c0 1a be c7 f7 0a 3e 48 9d 51 3e ce d8 8e 3e
       -0.15112656 0.13571082 0.20470154 0.27899784
0001e0 e9 44 eb bd 9d c2 0e be 29 83 92 3d b8 b9 28 be
       -0.11487753 -0.13941427 0.07153923 -0.16477096
0001f0 c3 bb 1c be 1b fe 85 3c ad af 0a 3e f9 64 93 3c
       -0.15306 0.016356518 0.13543577 0.017992483
000200 55 df 73 be bd 34 fd 3d 44 98 09 3e 9e 7b a1 3d
       -0.23815663 0.12363575 0.13436991 0.07884906
000210 64 7d 52 3e ec 98 fe 3d 80 b0 bd bd 83 ca 8b 3e
       0.20555645 0.12431511 -0.0926218 0.27302942
000220 d9 2f c0 3d 06 eb 84 bd f6 5e 6c bd 87 fb 89 be
       0.09384126 -0.0649014 -0.05770775 -0.26949713
000230 81 e4 87 3d aa d8 a2 3d 88 b8 18 3e a5 e1 aa bd
       0.066353805 0.07951482 0.14914143 -0.083438195
000240 1f 7a 18 be 75 97 1a be 89 b1 9f 3d a6 59 a0 3d
       -0.14890336 -0.15096839 0.07797534 0.07829599
000250 dc 3f a2 bd 27 e3 89 be 82 33 b8 3d fd 8a 05 3e
       -0.079223365 -0.26931116 0.08994199 0.13041301
000260 f9 cf 5f bd 51 e8 40 be c2 e7 bd bd 68 aa 2f 3e
       -0.054641698 -0.18838622 -0.0927272 0.17154849
000270 5d f6 14 be 35 18 95 3d ff 61 c6 bc 2c 71 0c 3e
       -0.14547105 0.07280008 -0.02421665 0.13715047
000280 c2 45 71 be 5a 0f e4 bc 85 f9 8a 3d d3 8a 31 3e
       -0.23561767 -0.027839351 0.06785873 0.17338113
000290 12 39 1d bd 55 6d 4e 3d 9d a7 0d 3e 9f 80 b4 3d
       -0.038384505 0.050397236 0.1383347 0.08813595
0002a0 50 d9 6f be 0b 76 56 be 67 b5 da 3d 98 05 33 3e
       -0.23422742 -0.20943467 0.10679131 0.17482603
0002b0 a7 56 22 be 6a 79 9a bd 57 c4 cb bd ff 67 8c bd
       -0.15853368 -0.07542689 -0.09949558 -0.06855773
0002c0 2c ad 69 3c 04 32 2c 3e 2d 15 d7 3d 8f 3e 2e be
       0.014262479 0.16815954 0.10502086 -0.17016052
0002d0 08 cd 36 bd 42 77 19 3c 16 97 43 3e 8b 8a 3c 3e
       -0.044629127 0.009366812 0.19100603 0.18412225
0002e0 7e c2 8e 3e 98 94 d8 bd a4 1c 70 bc 90 93 86 3e
       0.2788276 -0.10575217 -0.014655266 0.26284456
0002f0 f6 1b 79 be cc d1 0f be 2e 5d b0 bd c3 da 1d 3d
       -0.24327073 -0.14044875 -0.086115226 0.038538706
000300 fa e5 8b bc a5 d6 e7 bc 29 7a a9 bc 82 31 f2 bc
       -0.017077435 -0.028300593 -0.020688133 -0.029564623
000310 75 b9 7e 3d dc da de bb 00 8d 4f 3e a9 1c 5e 3e
       0.062188584 -0.0068009924 0.20268631 0.2169062
000320 1c df 63 3e 6c c9 88 3d 81 aa 1c 3e 91 76 81 be
       0.22253078 0.06679043 0.15299417 -0.2528577
000330 90 1e d6 3c e6 b8 34 be a2 1b 89 3d a9 83 83 bd
       0.02613762 -0.17648658 0.06694724 -0.064215966
000340 be 6b cd bd c4 06 72 3c 88 94 43 be 7f 1f a7 bd
       -0.10030316 0.014772121 -0.19099629 -0.08160304
000350 c6 49 5a be 30 eb 63 be 5e 39 9d 3e 12 75 12 3e
       -0.21317205 -0.22257686 0.3070783 0.14302471
000360 8c a6 d7 bd 3e 7b 06 bd 64 5f 9c bc 26 6e 47 3d
       -0.10529813 -0.032832377 -0.019088455 0.04868903
000370 77 d7 e7 bd 82 1c 6d bd f8 89 43 3c 26 ae 06 3e
       -0.113203935 -0.057888515 0.01193475 0.1315237
000380 82 61 84 be 14 e1 33 3c c6 86 18 3e d7 32 ef 3d
       -0.25855643 0.010978956 0.14895162 0.11679619
000390 28 62 e9 3c 63 11 b9 3d d1 80 ec 3d 1c 1a 01 be
       0.028489187 0.090365194 0.11548007 -0.12607616
0003a0 4c 6f 8d bd 7b 5b 75 bd 08 66 44 3d 61 78 ce bd
       -0.06905994 -0.059901696 0.047948867 -0.10081554
0003b0 d1 28 56 3c 63 db 00 be 0a ef 82 be d4 01 07 bd
       0.013071255 -0.1258369 -0.25572997 -0.032960728
0003c0 19 49 2d 3e 8d bb 32 3e d1 4c 41 be 9f d2 fc bd
       0.16922416 0.17454357 -0.1887696 -0.1234486
0003d0 de de b0 3d 0f a3 31 3e 0c 4a 2d 3d b5 c6 8f 3e
       0.086362585 0.17347358 0.042306945 0.2808129
0003e0 65 55 a1 bd fa 32 24 be ac a7 32 3e 3f b7 0c 3e
       -0.07877616 -0.16035071 0.17446774 0.13741778
0003f0 27 5b 71 3d 89 e9 b4 3b 3c 92 ac bd aa dd 41 be
       0.05892482 0.0055210036 -0.084263295 -0.18932214

hidden2.bias f4 [64]
000000 d5 45 12 3e ec 0e 83 bc 39 f7 97 3d 9c 35 8b 3d
       0.14284451 -0.015998326 0.07420201 0.067973346
000010 14 25 d8 bc e0 9f 28 bd 7c 3a 07 3e 8a 3f ff 3d
       -0.026384868 -0.041168094 0.13205904 0.12463291
000020 87 d8 06 bd 7c c4 f7 3d f7 64 72 3e ac c0 6a bd
       -0.03292134 0.12098023 0.23671328 -0.057312652
000030 b9 46 57 3e fe 1b b8 bd c2 6e ee bd 7a a3 2e 3e
       0.21023072 -0.08989714 -0.11642219 0.17054549
000040 e3 af 87 3d c5 30 77 3d 35 7e 34 be 79 13 92 bd
       0.066253446 0.060349245 -0.17626269 -0.0713262
000050 e7 e5 8a bd 6c f5 39 3e fc fe 27 bc 9a 1d 55 3e
       -0.06782132 0.18160027 -0.010253664 0.20812073
000060 9e f1 94 3d b7 0f 18 3d 67 2d f5 3d 89 fc 38 3e
       0.07272647 0.03712436 0.119715504 0.18065085
000070 df 72 ac bd f9 35 c3 3d f1 cf fc 3d 9f e0 5c 3c
       -0.084203474 0.09531779 0.12344349 0.013481288
000080 ab 8e b4 3d 9a fb 20 3e 6e 93 d5 bd 67 13 aa bc
       0.08816274 0.15720978 -0.104285106 -0.020761205
000090 ec 94 d7 bd f8 59 3f 3e b8 f4 8e 3e 77 51 34 3e
       -0.105264515 0.18686664 0.2792108 0.17609201
0000a0 f5 a7 ea 3c 43 74 40 3e 94 fe 9f 3d e6 e6 31 3e
       0.028644541 0.1879435 0.07812229 0.17373237
0000b0 16 05 4b bd d1 64 82 3d 49 bb e0 3d b7 33 a7 3d
       -0.049565397 0.063668855 0.10973222 0.08164161
0000c0 85 bc ad bd 11 1e 84 3d 74 f0 91 3d 77 13 54 3e
       -0.08483223 0.06451047 0.07125941 0.2071055
0000d0 a0 15 c4 3d c8 c9 e3 3d dd 0d a4 bd 42 75 04 bd
       0.09574437 0.11122471 -0.08010457 -0.03233839
0000e0 69 74 d7 3d d3 ec db 3d 5e 0f 6b bd 78 67 3c 3e
       0.1052025 0.1073853 -0.057387702 0.18398845
0000f0 d6 4f 30 3d 38 65 37 3e 97 5f e9 bd f3 a0 8d bd
       0.043044887 0.17909706 -0.113951854 -0.06915464

hidden3.weight f4 [32, 64]
000000 0f 3f 59 3e 68 50 f0 bc 8f fe 90 be ad a3 af 3d
       0.21215461 -0.029335216 -0.28319213 0.085761406
000010 8c 7b 4b bd c4 16 df bc aa 51 a3 be 90 8e 75 3c
       -0.04967837 -0.027232535 -0.31898242 0.014987603
000020 33 44 a9 3d 50 d4 b4 3d 49 d1 15 3e 40 a2 be bd
       0.08264961 0.08829558 0.14630617 -0.093082905
000030 1e 98 66 3d 88 b6 a0 3d 72 ab 52 3e 70 b9 06 3d
       0.056297414 0.07847315 0.20573214 0.03289169
000040 73 6c be 3c b5 6f 51 be 9a 1b 22 bd 8a 36 29 be
       0.023245072 -0.20452769 -0.039577104 -0.16524711
000050 a5 3e da 3d 83 df 0c 3e a1 2a a6 bd c9 b8 49 3d
       0.1065648 0.13757138 -0.081135996 0.04924849
000060 a2 f6 44 be 5a 67 09 be c6 35 62 3e 27 00 32 bc
       -0.19234708 -0.13418332 0.22090825 -0.010864294
000070 c9 f9 cb bd 92 9e 64 bb 4f 62 3a 3e e6 f8 ad 3d
       -0.09959752 -0.0034884554 0.18201564 0.08494739
000080 8b e9 69 3c d3 3a 3c 3e c8 fe dc bc b1 ab 2b 3d
       0.014276872 0.18381815 -0.026976958 0.041911785
000090 d8 6d 9c bd f3 b9 f4 3c ec 64 a3 3d 71 c9 a4 bd
       -0.076381385 0.029873824 0.07978234 -0.080462344
0000a0 a8 fc 13 3e 8e e3 28 bc f3 99 7a bd cf 36 c9 bd
       0.1445185 -0.0103081595 -0.061181974 -0.09824907
0000b0 92 cf 81 bd 3d 30 28 3d e5 e6 17 3e 7f 3a 9f bd
       -0.06338419 0.04106163 0.14834173 -0.07774829
0000c0 69 f7 3c 3d 03 ad 65 3e df 4a 9e bd 80 ec 62 3e
       0.046134386 0.2242928 -0.07729124 0.2216053
0000d0 03 36 39 3d 48 bf c3 3d 68 f6 aa bd b7 b0 a5 3a
       0.045217525 0.095579684 -0.083477795 0.0012641166
0000e0 27 77 c3 3d 6b 72 ee 3d a5 5f 80 bd 60 43 1f 3e
       0.09544211 0.11642917 -0.06268243 0.15553045
0000f0 2c be d5 bd 1b 87 ed bc 94 0a 91 bc 28 be 46 3e
       -0.10436663 -0.028995087 -0.01770524 0.19408476
000100 e7 e4 ea 3d 66 6c e9 3d b2 59 b0 3d f8 80 2f 3c
       0.11469441 0.113976285 0.08610858 0.010711901
000110 19 b6 2f 3e a3 41 64 3e aa 8c 02 3e ab 12 90 bd
       0.17159308 0.22290663 0.12748972 -0.07034811
000120 21 33 21 be f7 61 1e bd ea 57 9c 3d c6 12 c2 3d
       -0.1574216 -0.038667645 0.07633956 0.09476237
000130 c5 58 b2 bd b4 a6 90 bd 80 e7 77 be 86 cf 9a 3d
       -0.08708338 -0.07063046 -0.24209404 0.07559113
000140 4a 39 1a 3e ac 8c 0b 3e 38 b9 d7 bd 0b bc 8d 3c
       0.15060917 0.13627881 -0.105333745 0.01730158
000150 31 76 29 bd 77 b4 cc bd 12 79 9e bd b6 fd 56 3d
       -0.04137248 -0.099953584 -0.07737936 0.05248805
000160 7c ac 03 3e f5 de 27 3d 62 07 21 be 7e ee 0c be
       0.12858766 0.040984113 -0.15725473 -0.13762853
000170 06 cf 17 bd c1 fb 27 be a5 61 9b 3d 5a fa cc 3d
       -0.037062667 -0.1640463 0.075869836 0.10008688
000180 63 8e 13 3d 2e 7f be 3d 00 90 53 39 96 83 ea bc
       0.036024462 0.09301601 0.00020176172 -0.028627198
000190 2e d6 d2 3d f5 87 47 3d a7 4f 25 be 2c 32 db bd
       0.10294758 0.048713643 -0.16143666 -0.10702929
0001a0 ca bb f4 3d 38 5f 10 be ff 28 a6 3d 0e 1b c2 bc
       0.119498804 -0.14098823 0.08113288 -0.023694541
0001b0 49 d9 96 3c d0 a6 b2 3d 90 8f bd 3d f3 71 68 3d
       0.018414157 0.08723223 0.09255898 0.056749295
0001c0 92 e1 88 bc b9 85 4c 3c a4 a0 0f 3d 5d a6 1d 3e
       -0.016709123 0.012483054 0.03506531 0.15395494
0001d0 3e e3 87 3d a5 bc 55 3e e8 ca 5a bd 5a 31 b3 3d
       0.0663514 0.20872743 -0.053416163 0.087496474
0001e0 de fa 87 3d 4a db ca 3d 00 ca 64 3d 90 2d 8e 3d
       0.06639646 0.09905107 0.055856705 0.06942284
0001f0 c0 1f a4 bd bc 2c 9f 3d 56 f6 a6 bd ba d2 0b 3d
       -0.08013868 0.07772204 -0.081524536 0.03413651
000200 09 31 03 3b 59 1b af bd ff 80 9f bd 32 6a 32 be
       0.002001824 -0.08550138 -0.07788276 -0.17423323
000210 27 ec 18 3e 72 6d 50 3c 78 99 e0 39 da 36 df bc
       0.14933835 0.012721406 0.00042838953 -0.027247835
000220 43 eb 92 bd 96 eb 82 ba 31 43 5b bd e0 63 32 bc
       -0.07173779 -0.0009988423 -0.053530876 -0.01088807
000230 d0 ab a2 bd 14 ee 87 bd ac 88 47 be 4c ea 20 3e
       -0.07942927 -0.06637207 -0.1948573 0.15714377
000240 45 fb 2b 3e 85 9c a6 3d 40 d8 8a 3d d0 85 8b 3c
       0.1679507 0.081353225 0.06779528 0.01703158
000250 c4 37 64 3e 4c 6e 99 3d 67 77 a2 3d 46 a5 b6 3d
       0.22286898 0.074917406 0.079329304 0.08918242
000260 79 5c 1c 3e e7 f9 09 3d da 17 f0 3c 8e ce dd bd
       0.1526965 0.03368559 0.029308248 -0.10830413
000270 84 10 91 bc f0 eb f5 bd f4 58 fc 3d da 3b 05 3e
       -0.01770807 -0.12007892 0.12321654 0.13011113
000280 ab 62 07 3c da 3a 22 3d 9a 9f e9 3d cf 86 c9 ba
       0.00826327 0.039606906 0.11407395 -0.0015375259
000290 74 d1 e7 bd 07 5e c8 bd da 61 9c 3c e1 1d 1f bd
       -0.11319247 -0.09783559 0.019089628 -0.038846854
0002a0 f6 3a 90 3d db fc 60 3d 8c 67 2d 3e 25 d2 ba 3c
       0.07042496 0.05492864 0.16934031 0.022805283
0002b0 d8 ef 67 be 86 9b e6 3d ed f2 e4 3d 64 17 ea bd
       -0.22650087 0.112601325 0.11179147 -0.11430243
0002c0 eb a8 d1 bb 89 35 f9 3d 9e 65 c9 bb e8 f8 20 3e
       -0.0063983104 0.12168414 -0.006146147 0.1571995
0002d0 c0 e7 96 3d 7a 6d ce 3d eb 45 df bc f8 0e 24 3e
       0.073684216 0.10079475 -0.02725502 0.16021335
0002e0 f3 a4 e0 3b ce 00 5c 3e c7 f5 b9 3d 4b c9 27 bd
       0.006855601 0.21484682 0.090800814 -0.040963452
0002f0 84 39 6f bc 07 74 f9 3a 65 c9 8e 3d 74 93 7b 3d
       -0.014601115 0.0019031771 0.06972007 0.06141992
000300 80 8d fe bc 5b e8 a4 bd ac be 49 3d 1a c3 af bd
       -0.031073332 -0.08052131 0.049254104 -0.085821345
000310 eb 2a a9 3c 68 ae e7 bd ee 08 e8 3d 59 6a f6 bc
       0.020650348 -0.11312562 0.11329828 -0.030080007
000320 54 bd 85 bd 6e 6a 90 3d 98 4b 20 3d 4c 69 19 3d
       -0.06530252 0.0705155 0.03913459 0.037453935
000330 d8 e4 cb bd e8 37 77 3d 90 6c 4b 3c 93 15 be bc
       -0.09955758 0.06035605 0.01241602 -0.023203647
000340 60 6f db 3b 0a 46 0a bd 52 2a d4 bd e0 d6 7c bc
       0.0066966265 -0.0337582 -0.103596345 -0.01543209
000350 b0 0e d3 3d 3a 75 85 bd 82 3e 87 bd 8c c7 8c 3c
       0.10305536 -0.065165 -0.06603719 0.017184995
000360 ce 92 9b 3d 97 c2 cc 3c 4a 3b c3 bd 4e ff 95 bd
       0.0759636 0.024995131 -0.09532793 -0.07324086
000370 3a e0 d9 bd f8 83 a2 3c 23 c3 ba bc c0 be 95 3d
       -0.10638471 0.019838318 -0.022798127 0.07311773
000380 20 ed 92 bd 00 a2 8b bb 8a 31 f6 bd f7 b4 de bd
       -0.07174134 -0.0042612553 -0.120211676 -0.1087436
000390 80 08 76 3b c0 d6 64 bd cc 18 5c bd 05 7e 2e 3d
       0.0037541687 -0.055868864 -0.053734586 0.04260065
0003a0 84 98 ba 3c 82 2a 37 bd 9b 93 81 bd a7 c0 26 3d
       0.022777803 -0.044718273 -0.06326982 0.04071107
0003b0 5e b3 84 bd fe 2c 9d bb f6 90 47 3d 63 44 9b bd
       -0.06479524 -0.0047966233 0.04872223 -0.07581403
0003c0 b8 cd 90 bc 00 21 6d 3b f4 f2 f7 bd 3e da d9 bd
       -0.01767622 0.0036183 -0.121068865 -0.106373295
0003d0 4c 1e f2 3d b0 74 3f bc 58 5e fb bc eb e7 17 3d
       0.11822185 -0.011685535 -0.030684635 0.03708641
0003e0 3e 3b a9 bd 30 2a 29 bd b4 f7 b4 3d c6 4e 9b bd
       -0.08263253 -0.0413 0.08836308 -0.07583384
0003f0 c6 74 02 3d dc 3c 95 bd 78 34 a5 3d 40 a6 0b 3b
       0.031849645 -0.07286999 0.08066648 0.002130881

hidden3.bias f4 [32]
000000 82 8d 1b 3e 28 96 7e 3c 91 43 2f 3e ad 0c e6 39
       0.151907 0.01553873 0.17115618 0.00043878463
000010 c0 b3 c0 bc 98 c6 2a bd 9c 9c 90 bd 53 9c 8c 3d
       -0.023523211 -0.0416933 -0.07061121 0.06865754
000020 40 d1 ad 3b d2 43 0c 3e cf 1d 0a 3e 8b 55 6d 3c
       0.0053044856 0.13697746 0.13487934 0.014485727
000030 fd 98 de bd 64 9c 4f b9 a4 84 ac 3d 3a b3 f7 3d
       -0.10869024 -0.00019799318 0.08423737 0.12094732
000040 6e 9e 40 3d 3b df 21 bd 50 de c1 bd 13 b1 5f ba
       0.04702609 -0.03951953 -0.09466231 -0.0008533161
000050 2c 7d 16 3e e0 cd ca bb 8a e1 c4 3d 38 55 cb bd
       0.14696187 -0.006189093 0.09613331 -0.099283636
000060 81 3f aa bd ad f2 9b bd e7 f8 dd bd cb 84 b1 3d
       -0.08312894 -0.07614646 -0.1083849 0.086679064
000070 2d 2a 31 3e 80 93 ff bb d8 60 ce bd a1 dd 89 bd
       0.17301245 -0.007799566 -0.10077065 -0.067317255

output_regression.weight f4 [1, 32]
000000 24 8a ed bd ed e1 8a 3e 35 59 54 3e 67 87 39 bd
       -0.11598614 0.27125493 0.20737155 -0.045295145
000010 5f df 43 3d fc 75 1d be f5 46 1d be d7 5d 42 3e
       0.047820445 -0.15377039 -0.15359099 0.1898111
000020 0a 78 06 3e 33 02 28 3e c6 b6 33 3e f6 18 f4 3d
       0.13131729 0.16407089 0.17550191 0.119188234
000030 3e fa f3 bd 1a 0f 3f be aa b6 06 3e d3 cd bb be
       -0.11912964 -0.18658105 0.13155618 -0.3668047
000040 c4 03 64 3c b1 4f 45 3e f2 a2 6f 3e a3 dd 3b be
       0.013916913 0.19268681 0.23402002 -0.18346266
000050 09 86 04 be 7b b7 d5 3d 30 29 cd 3d 96 1a 0b 3e
       -0.12941755 0.10435387 0.100176215 0.1358436
000060 0f fa 49 3a 72 d9 17 be 8a 0a cc 3d 0c 9a 56 be
       0.0007704803 -0.14829043 0.09962948 -0.20957202
000070 59 7d 51 be e3 f4 ee bd cf 1c 4f bd 0a f0 65 3e
       -0.20457973 -0.11667802 -0.050564583 0.22454849

output_classification.weight f4 [3, 32]
000000 e0 8f 17 be f9 de 0f 3d 93 a5 c5 3d 19 19 90 bc
       -0.14800978 0.035124753 0.096507214 -0.017590092
000010 5d 2f d9 bc 3b 97 18 3d c6 80 97 3d ae 88 86 3e
       -0.026511842 0.0372536 0.073976085 0.26276153
000020 5a 99 1c 3d fc 9d 4f 3e 1c 41 7b 3c 76 b3 1e 3e
       0.038232185 0.2027511 0.0153353475 0.15498146
000030 ed ba 56 be 3e 3d c7 bc cb b7 68 3e 8f 1b 46 3c
       -0.20969744 -0.024321195 0.22726361 0.012091531
000040 6f 4c 6e be 51 73 6e be 43 3e 30 3e 1a 43 34 3e
       -0.23271345 -0.23286177 0.17211251 0.17603722
000050 8a b9 25 be b3 d1 ea bd 4f 27 a0 bd ab 3f 0c 3e
       -0.16184059 -0.11465778 -0.078199975 0.13696162
000060 8a 33 ea bd d3 79 75 3e f0 57 53 bd f1 82 75 be
       -0.114356115 0.23972254 -0.051597536 -0.23975731
000070 f7 79 59 3e 44 2a 1d bd 4b 67 20 3e 88 c2 76 bd
       0.21237932 -0.038370386 0.15664403 -0.060244113
000080 15 69 3c bc 85 c4 3c be 3d 4a 3f be e1 3e bf bc
       -0.011499663 -0.18434341 -0.18680663 -0.023345413
000090 59 67 c4 3d d2 c1 be 3d 3b ae 21 3d bb 52 a5 bc
       0.095900245 0.09314312 0.0394728 -0.02018105
0000a0 d0 1d 5e 3c 79 d5 9e 3d d0 63 1c 3d 09 04 c3 bd
       0.013556913 0.077555604 0.038181126 -0.09522254
0000b0 2e 53 52 be b5 f4 86 3e 82 6f 03 be 73 6d fe 3d
       -0.20539543 0.26358572 -0.12835506 0.124232195
0000c0 02 ab 2f 3e 08 f7 85 3e b2 d0 71 be c2 e1 49 bd
       0.17155078 0.26165032 -0.23614767 -0.049287565
0000d0 6d 9b 3d 3e 92 f6 a6 bc 16 8a 82 3e f0 9d d9 3c
       0.18516321 -0.020381246 0.25495976 0.026564568
0000e0 47 12 88 bd 00 6b 06 bd 43 b6 89 bc b3 15 81 be
       -0.06644111 -0.032816887 -0.016810542 -0.25211868
0000f0 fc 10 52 3c d0 86 d5 bd 59 2b a3 bd 3c f4 81 bd
       0.012821432 -0.10426104 -0.07967252 -0.06345412
000100 8d 19 88 3e bc 3d 23 3e 73 1d 81 3e e4 fa dd bd
       0.26581994 0.15941519 0.2521778 -0.10838869
000110 fe d6 6e 3d 6b 65 1e 3e 39 c7 0f be 6a 26 27 3c
       0.0583105 0.15468375 -0.14040841 0.01020203
000120 f6 39 70 bc dd 67 3c be 1b 32 84 be db 4b 3c 3e
       -0.014662256 -0.18398996 -0.25819477 0.18388312
000130 48 cf ea 3c 9b 49 38 be ed 3a 45 be 74 95 85 be
       0.028663293 -0.17996828 -0.1926076 -0.26090586
000140 0d e8 88 3e 11 30 3e bd 89 a1 d0 bb e1 ca 1a 3e
       0.2673954 -0.04643256 -0.0063669127 0.15116455
000150 79 8f f4 bc ab 3a 39 3c 7e 02 d8 bd 23 fb 16 be
       -0.02985357 0.011305491 -0.1054735 -0.14744239
000160 c0 d8 1b bd 15 91 a0 bd e5 62 cd 3d 1a 59 e2 3d
       -0.038048506 -0.07840172 0.10028628 0.11052151
000170 57 5f 3d be 4e 23 90 bb 25 80 56 bd cc 92 90 bd
       -0.184934 -0.00439874 -0.052368302 -0.07059249

output_classification.bias f4 [3]
000000 f8 e9 8d ba b7 cf 55 3d aa 06 3b 3e
       -0.0010827174 0.052200045 0.18264261
